course/general/code/frameworks_basics/pytorch/irisnet.model (torch_old, 23860 bytes, 6 tensors)

fc1.weight f4 [100, 4]
0	0xbec37c5a	-0.3818081
1	0xbeb24452	-0.3481775
2	0x3e904b96	0.28182667
3	0x3e106784	0.14101988
4	0xbea7520e	-0.3267979
5	0xbe4e8470	-0.20167708
6	0xbe7fd7d4	-0.24984676
7	0x3e3e63a4	0.18592697
8	0xbde7b195	-0.11313168
9	0x3e39588f	0.18100189
10	0xbd838089	-0.064210005
11	0xbc4a3c92	-0.012343543
12	0xbe686314	-0.22694045
13	0x3e124504	0.1428414
14	0x3e00d4b4	0.1258114
15	0x3e4032c4	0.18769366
16	0x3ec78c71	0.38974336
17	0x3d7c683c	0.061622843
18	0xbef38f01	-0.4757004
19	0xbe01df62	-0.1268287
20	0x3e70f2ae	0.23530075
21	0x3ef44761	0.47710708
22	0xbe076ed0	-0.13225865
23	0xbec93146	-0.39295405
24	0x3e5d2b4f	0.21598552
25	0x3ea772ca	0.32704765
26	0xbeba63a0	-0.36404133
27	0x3bd41a20	0.006472841
28	0xbe50b5a8	-0.20381796
29	0x3e50175c	0.20321411
30	0xbd6f26a0	-0.058386445
31	0xbebe8206	-0.37208575
32	0x3dddd02c	0.10830721
33	0x3da372c8	0.07980877
34	0xbe1f7e79	-0.15575589
35	0x3e6af291	0.22944094
36	0xbec9b74e	-0.39397663
37	0x3e8ebd68	0.2787888
38	0xbe328380	-0.17432976
39	0x3ecfad36	0.40561837
40	0xbe215ee4	-0.15758854
41	0x3d52a1f0	0.051423967
42	0x3c92ade0	0.017905176
43	0xbeedd43e	-0.4645099
44	0x3e312899	0.17300643
45	0x3f02a24b	0.5102889
46	0xbeabd037	-0.33557293
47	0xbdceeae6	-0.10103397
48	0x3edd9056	0.43274182
49	0x3deb8a22	0.11500956
50	0xbece9cdb	-0.40354046
51	0x3e664cfd	0.22490306
52	0x3e3fa800	0.1871643
53	0xbe5ed3ec	-0.2176053
54	0xbe90bf36	-0.28270882
55	0xbe4aaacc	-0.19791716
56	0x3ee02f2b	0.43785986
57	0xbee48aab	-0.44637045
58	0x3ea7f942	0.32807356
59	0xbe5a6f8f	-0.21331619
60	0xbe0840fb	-0.13306038
61	0x3e6c94f6	0.23103699
62	0x3ea71d1e	0.32639402
63	0xbd75178a	-0.0598369
64	0x3d69ca2a	0.057077564
65	0xbe1521b2	-0.14563635
66	0x3c0326fe	0.008004902
67	0x3ed4a469	0.41531685
68	0x3ef2bd6f	0.4741015
69	0x3e527a92	0.2055457
70	0xbe947597	-0.28995964
71	0xbe841742	-0.25798994
72	0xbef35786	-0.47527713
73	0x3ece6108	0.40308404
74	0xbe1192a8	-0.14216101
75	0xbd0b7d60	-0.034055114
76	0xbecc0380	-0.3984642
77	0xbe88eaaa	-0.26741534
78	0x3e0d6054	0.13806278
79	0x3d3dc740	0.046332598
80	0xbd5f6240	-0.054537058
81	0xbe3ee268	-0.18641055
82	0xbd835920	-0.064134836
83	0xbeb655ea	-0.35612422
84	0xbdf731e0	-0.1207006
85	0x3d3f2f40	0.04667592
86	0xbecd7336	-0.4012696
87	0x3e9c662a	0.30546695
88	0xbea4e8fc	-0.32209003
89	0xbb32bd00	-0.0027273297
90	0x3d98de30	0.07464254
91	0xbe226418	-0.15858495
92	0xbeb958ee	-0.3620066
93	0x3c52bfc0	0.0128631
94	0x3dc85088	0.09780985
95	0x3ee25018	0.44201732
96	0xbeedd87a	-0.4645422
97	0xbd5a31d0	-0.05327016
98	0x3ee8287a	0.4534338
99	0xbd6ab080	-0.05729723
100	0x3c1a8876	0.009431949
101	0xbdeebf55	-0.116575874
102	0x3f04e437	0.5191073
103	0xbe571416	-0.21003756
104	0xbed0820e	-0.40724224
105	0x3ec54bea	0.3853448
106	0x3d343b70	0.044001997
107	0x3e2315c4	0.15926272
108	0xbef4b20a	-0.47792083
109	0x3ec7a4a2	0.38992792
110	0xbedbe1ec	-0.42945802
111	0xbe7ebf28	-0.24877608
112	0x3e1ba507	0.15199672
113	0xbeffd8ca	-0.49970084
114	0x3ec899a2	0.39179713
115	0xbe742aba	-0.23844424
116	0x3dd73e32	0.1050991
117	0xbeeda005	-0.46411148
118	0x3ee5103a	0.44738942
119	0x3ea1089f	0.3145189
120	0x3f0184c3	0.50593203
121	0xbeb141ab	-0.34620413
122	0xbbe3ea15	-0.006955395
123	0xbefab0db	-0.48963055
124	0x3e800043	0.250002
125	0x3e1204cb	0.14259641
126	0x3d9151d8	0.070956886
127	0xbe0453cd	-0.12922592
128	0xbdff1e68	-0.124569714
129	0xbea88d86	-0.32920474
130	0xbe9f7c0e	-0.31149334
131	0x3efc6492	0.4929548
132	0x3e29ff1f	0.16601227
133	0x3e1bafcf	0.15203784
134	0xbd4e1679	-0.0503144
135	0xbee3e53f	-0.44510838
136	0x3e8cee65	0.2752563
137	0x3eed786c	0.46380937
138	0x3e079d37	0.13243566
139	0x3edd0cc8	0.43173814
140	0xbdac7643	-0.08420994
141	0x3e211e33	0.15734176
142	0x3ef12e07	0.4710543
143	0xbe09d4ea	-0.13460127
144	0x3e1349cf	0.14383624
145	0x3f054442	0.5205728
146	0x3c3eac89	0.011637815
147	0x3e17c567	0.14821397
148	0x3e75c2f9	0.24000157
149	0xbe6898d3	-0.22714548
150	0xbd4445e1	-0.047918204
151	0xbe5864b5	-0.21132167
152	0xbe98aee6	-0.29820937
153	0xbda81690	-0.082074285
154	0x3e16294c	0.14664191
155	0xbe6233a8	-0.22090018
156	0xbef7ab2a	-0.48372775
157	0xbe9977b4	-0.2997414
158	0xbd7e21a0	-0.062043786
159	0x3eee51ce	0.46546787
160	0xbe8dc471	-0.27688935
161	0x3de7e58c	0.113230795
162	0x3e61bf11	0.22045542
163	0x3efad8a1	0.489934
164	0x3e2b133f	0.1670656
165	0x3ef813a2	0.4845248
166	0xbd37626a	-0.04477159
167	0xbea45d95	-0.32102647
168	0xbe0b7748	-0.13619721
169	0xbe6ab1f6	-0.22919449
170	0x3e6af6c9	0.22945704
171	0x3eab3f12	0.33446556
172	0x3d1ac187	0.03778222
173	0xbe3915ce	-0.18074724
174	0x3e64d405	0.22346504
175	0x3c1ea1e8	0.009682156
176	0xbe841e1b	-0.2580422
177	0xbeb3a3fb	-0.35086045
178	0x3ed052e3	0.40688238
179	0x3f0cae9a	0.5495392
180	0xbe5942dc	-0.21216911
181	0xbee57f92	-0.4482389
182	0x3dad20a0	0.08453488
183	0x3ec56f2a	0.38561374
184	0x3ef2a7d1	0.4739366
185	0xbd076b60	-0.033061385
186	0xbeced6c4	-0.40398228
187	0xbe9cd152	-0.3062845
188	0x3ef150ae	0.47131866
189	0x3e0101d8	0.1259836
190	0x3ebafc4a	0.36520606
191	0xb8bbfc03	-8.963796e-05
192	0x3e98c66e	0.2983889
193	0xbd8d797b	-0.06907936
194	0xbe9acc57	-0.30234024
195	0x3db7bf1c	0.08971998
196	0x3e31a72c	0.17348927
197	0xbe6b1364	-0.22956616
198	0xbe5af06c	-0.21380776
199	0x3cbfbfe0	0.023406923
200	0xbea7592e	-0.32685226
201	0xbd7f6e10	-0.062360823
202	0xbebf0806	-0.3731081
203	0xbed69eec	-0.41918123
204	0xbe776058	-0.24157846
205	0x3d305416	0.04304894
206	0x3f1d6363	0.6147978
207	0x3ecf9b97	0.40548393
208	0x3e214037	0.15747152
209	0x3edce762	0.4314528
210	0x3e0cdf53	0.13757066
211	0xbf0fa670	-0.5611334
212	0xbe3d6538	-0.18495643
213	0xbe415f38	-0.1888398
214	0xbd1a0670	-0.037603796
215	0xbe41914c	-0.18903083
216	0x3e818451	0.25296262
217	0x3de20993	0.110369824
218	0x3eb35176	0.35023087
219	0xbeaf511f	-0.34241578
220	0xbe01a3b4	-0.12660104
221	0x3e7246c4	0.23659807
222	0x3ef1c684	0.47221768
223	0x3e241c0e	0.16026327
224	0x3d8b2f2c	0.06796107
225	0xbec220fe	-0.37915796
226	0x3dd2e831	0.10298193
227	0x3eeb0482	0.45901877
228	0x3e282b60	0.16422796
229	0xbec4a798	-0.38409114
230	0xbe400cd8	-0.187549
231	0x3ea65466	0.32486266
232	0x3eb87ff1	0.36035112
233	0xbee888ce	-0.45416874
234	0xbe488a97	-0.19584118
235	0x3ef96aba	0.48714238
236	0x3da86cc3	0.0822387
237	0xbe94ff10	-0.29100847
238	0x3eebd6ca	0.4606231
239	0xbea47e5c	-0.32127655
240	0x3edf6cac	0.43637598
241	0xbe34c594	-0.17653495
242	0xbefd62df	-0.49489495
243	0x3ea65f5e	0.32494634
244	0x3e06ee5a	0.13176861
245	0x3e0fc661	0.1404052
246	0xbea74ba5	-0.326749
247	0x3ebb21a1	0.36549094
248	0x3d7e4cf0	0.062085092
249	0xbec37342	-0.38173872
250	0xbe65fcc8	-0.2245971
251	0xbe4e15f8	-0.20125568
252	0xbebfb666	-0.37443846
253	0x3d9435f0	0.0723685
254	0x3c92fe00	0.017943382
255	0xbee2c680	-0.44292068

fc1.bias f4 [100]
0	0xbca47740	-0.020076394
1	0x3e877bc6	0.2646162
2	0xbb09a077	-0.0021000186
3	0xbedcdc2e	-0.43136734
4	0x3e9bb714	0.30413115
5	0xbd938d66	-0.07204704
6	0xbd7a5949	-0.061120305
7	0xbe47c5f4	-0.19509107
8	0xbee0125a	-0.43764
9	0xbea05754	-0.31316626
10	0xbef4bc70	-0.47800016
11	0xbe9e17bf	-0.30877492
12	0x3e12330b	0.14277284
13	0xbe1480f8	-0.14502323
14	0xbec322dd	-0.38112536
15	0x3eb3da9a	0.35127717
16	0x3dc6c3e9	0.09705336
17	0xbc37bfa8	-0.011215128
18	0xbe83226e	-0.25612205
19	0x3e1957f8	0.14974964
20	0xbe84b0ec	-0.2591623
21	0xbe8d47d4	-0.27593863
22	0xbe3cbdfc	-0.18431848
23	0x3efe5e88	0.49681497
24	0xbee73bc6	-0.4516279
25	0xbd696df1	-0.056989614
26	0x3d87b6c8	0.0662666
27	0xbe8c98bc	-0.27460277
28	0x3ec5106c	0.3848909
29	0x3e995b59	0.29952505
30	0xbe8d63e1	-0.27615264
31	0xbe9140ef	-0.28369853
32	0x3ef59ab0	0.4796958
33	0x3d85a5ea	0.06525786
34	0x3de2b8f4	0.11070433
35	0x3e3ce645	0.18447216
36	0x3e05a4fa	0.13051215
37	0x3e6f8559	0.23390712
38	0x3db82070	0.08990562
39	0x3cba9100	0.02277422
40	0x3e3bd734	0.18343812
41	0xbd828f42	-0.063749805
42	0x3de97baa	0.1140054
43	0xbebfdd95	-0.3747374
44	0x3e76a572	0.2408655
45	0xbeffe9a8	-0.49982953
46	0x3e7a6b74	0.24455053
47	0x3ef7b623	0.48381147
48	0x3e5053ac	0.20344418
49	0xba249c00	-0.00062793493
50	0xbdcf8020	-0.1013186
51	0xbdd8fcae	-0.1059507
52	0x3ee74124	0.45166886
53	0x3db46bf0	0.0880965
54	0xbc58f6b1	-0.01324241
55	0xbee5cdbd	-0.44883528
56	0x3d964a2a	0.073383644
57	0x3e25d048	0.16192734
58	0x3dca403c	0.09875533
59	0xbc7752b5	-0.0150954025
60	0xbc65f05a	-0.014034355
61	0xbe9ef39c	-0.31045234
62	0x3eb43b1e	0.35201353
63	0x3e15df30	0.1463592
64	0xbe47645f	-0.19471882
65	0xbe5e7f35	-0.21728213
66	0x3de51108	0.11184889
67	0xbe11700a	-0.14202896
68	0xbe5ad5c7	-0.21370612
69	0x3eb1403c	0.3461932
70	0x3afadc4e	0.0019139142
71	0x3d6973cf	0.05699521
72	0x3d8375c0	0.064189434
73	0x3e17ce30	0.14824748
74	0xbe396352	-0.18104294
75	0xbd099970	-0.033593595
76	0x3e743f43	0.23852257
77	0x3ee0518d	0.43812218
78	0xbec9bf58	-0.39403796
79	0xbea1ff1a	-0.3163994
80	0x3eb50eda	0.35362893
81	0x3dc47dd5	0.09594313
82	0x3da1b1a8	0.07895213
83	0x3e086910	0.13321328
84	0x3e158e03	0.14604954
85	0xbed2423e	-0.41066164
86	0x3d3cfb30	0.04613799
87	0x3e933030	0.28747702
88	0x3d9a51cc	0.07535133
89	0xbea57b4c	-0.3232063
90	0xbe510dbc	-0.20415395
91	0x3ebef8a5	0.37299076
92	0xbe743791	-0.23849322
93	0xbed6674b	-0.4187568
94	0x3ebb81a0	0.36622334
95	0xbe9641f4	-0.29347193
96	0xbe9728ff	-0.29523465
97	0x3d4e86da	0.050421573
98	0xbee29e02	-0.44261175
99	0xbca0c0a0	-0.0196231

fc2.weight f4 [50, 100]
0	0x3dcb8a53	0.099384926
1	0xbd95a590	-0.07306969
2	0xbda65367	-0.081213765
3	0x3d53358a	0.05156473
4	0xbc1ff296	-0.009762427
5	0x3dcdc3f4	0.10047141
6	0x3dd6cded	0.10488496
7	0xbcee1cf4	-0.02906654
8	0x3dba19e6	0.09086971
9	0x3dc5fb19	0.09667034
10	0xbc7b69f0	-0.015345082
11	0x3d8dc171	0.06921662
12	0x3e04e8ee	0.1297948
13	0x3cbe6f40	0.023246408
14	0xbd992da7	-0.074794106
15	0x3c82168e	0.015879896
16	0xba1cb299	-0.0005977541
17	0x3deda21e	0.11603187
18	0x3bd90fe0	0.006624207
19	0x3d96ef65	0.0736988
20	0xbc7c37e8	-0.015394188
21	0x3c786100	0.015159845
22	0xbcb2172c	-0.021739565
23	0xbd8e09d6	-0.0693547
24	0xbdb31a1a	-0.08745213
25	0xbdf820f9	-0.12115664
26	0xbd433467	-0.047657397
27	0xbb992ee0	-0.0046747774
28	0xbdf6e724	-0.12055805
29	0xbdc5c347	-0.09656387
30	0x3d803669	0.06260378
31	0x3dc12ecf	0.09432756
32	0xbc8d6f38	-0.017264947
33	0x3dc2fa8d	0.09520445
34	0xbd9e0fb4	-0.07717839
35	0xbd8f128a	-0.06985958
36	0x3ce983fb	0.028505316
37	0x3d0a1f70	0.033721387
38	0xbd13c716	-0.036078535
39	0x3c745210	0.014912143
40	0xbd6a0d03	-0.057141315
41	0x3cea731c	0.028619342
42	0x3dbe7e70	0.0930146
43	0xbc935756	-0.017985981
44	0xbd858f78	-0.06521505
45	0x3c0436c0	0.008069694
46	0x3bedb6e2	0.0072544673
47	0xbdcb3696	-0.09922521
48	0x3cae11d8	0.021248743
49	0x3c884a98	0.016637132
50	0xbb8ddb20	-0.0043291003
51	0x3d7f1620	0.06227696
52	0xbd732039	-0.0593569
53	0xbd9762da	-0.07391901
54	0xbd692701	-0.056921963
55	0xbdc95422	-0.098305
56	0x3daffb6d	0.085928775
57	0x3d520a22	0.051279195
58	0xbaeea738	-0.0018207794
59	0x3d84b202	0.06479265
60	0xbc64aea9	-0.013957658
61	0x3dc12e5a	0.09432669
62	0x3d8756a7	0.066083245
63	0x3d77c4a2	0.060490258
64	0xbe08fb8e	-0.1337721
65	0xbd84b3b1	-0.06479586
66	0x3d0e130e	0.03468614
67	0x3e0693c5	0.13142307
68	0x3c4100e9	0.011780002
69	0x3d972fe9	0.07382185
70	0xbe07ba0d	-0.13254566
71	0x3d21070c	0.03931336
72	0x3d6440aa	0.05572573
73	0x3c0c0480	0.008545995
74	0x3ddcbf8a	0.10778721
75	0x3ad1eafc	0.0016015465
76	0xbcb4b5f5	-0.02205942
77	0xbceb0cc2	-0.028692607
78	0x3d990040	0.07470751
79	0x3db8352d	0.089945175
80	0xbd338395	-0.04382666
81	0xbd38f107	-0.045151737
82	0x3da9d5db	0.08292743
83	0xbdb5f2c9	-0.08884198
84	0x3d423bd4	0.047420338
85	0xbd4c8445	-0.04993083
86	0xbd98f463	-0.07468488
87	0x3db1ffb0	0.08691347
88	0x3d58444d	0.05279951
89	0xbd030dda	-0.03199563
90	0xbcff5f54	-0.031173386
91	0x3c2178f2	0.009855496
92	0x3d00e112	0.031464644
93	0xbc1f140d	-0.00970937
94	0x3d3e48ce	0.04645615
95	0xbda19532	-0.07889785
96	0x3d861228	0.06546432
97	0x3d0e8694	0.034796312
98	0xbb38a600	-0.0028175116
99	0x3de8062e	0.11329304
100	0x3d93ac09	0.072105475
101	0x3ac42600	0.0014964938
102	0x3d4d68e7	0.05014887
103	0x3d446eb6	0.047957145
104	0x3de2ae9b	0.110684596
105	0x3e230649	0.15920366
106	0x3e1e841d	0.15480085
107	0xbd2a13a3	-0.041522633
108	0xbd8220eb	-0.06353935
109	0xba75f400	-0.0009382367
110	0xbd80c408	-0.0628739
111	0x3e2884cc	0.16456908
112	0x3e1f5043	0.15557961
113	0x3cbc2d78	0.0229709
114	0x3cd546ae	0.02603468
115	0x3ae7635c	0.0017653513
116	0xbe15e2f7	-0.14637361
117	0x3e4b4012	0.1984866
118	0x3c6f4840	0.014604628
119	0x3c353300	0.011059523
120	0x3d529c52	0.05141861
121	0xbd47e283	-0.048800003
122	0xbdc15350	-0.09439719
123	0xbc4c1d98	-0.012458228
124	0x3d0b367e	0.033987515
125	0xbe1b6643	-0.15175728
126	0x3da9f1c3	0.082980655
127	0x3c0a0e90	0.0084263235
128	0xbcb1f6d6	-0.021724146
129	0xbe50e4d1	-0.20399787
130	0x3d245a7d	0.04012536
131	0x3bc56f1c	0.006025208
132	0x3cf5b5d4	0.029993929
133	0x3e2fb044	0.17157084
134	0xbd45666d	-0.048193384
135	0x3d4b1234	0.049577907
136	0x3e1aa080	0.15100288
137	0x391d5025	0.00015002543
138	0x3db58c01	0.08864594
139	0x3d6996d2	0.0570286
140	0xbde52e46	-0.111904666
141	0x3cda6a36	0.026661973
142	0x3d87064b	0.06592997
143	0x3c9f3b5b	0.019437483
144	0xbda42e88	-0.08016688
145	0xbd2488ed	-0.040169645
146	0x3e2ebf9b	0.17065279
147	0x3dc5e95c	0.096636504
148	0x3c639e69	0.013892748
149	0x3dc5380f	0.09629833
150	0x3d7c24f2	0.06155867
151	0xbdc0ea46	-0.09419684
152	0x3e50a558	0.20375574
153	0x3d5fd132	0.054642864
154	0x3ce8f75e	0.028438266
155	0xbe1f2d9a	-0.1554474
156	0x3c426feb	0.011867504
157	0x3c43cf68	0.011951305
158	0xbdd22a8f	-0.10262024
159	0xbe1a0b16	-0.15043291
160	0x3d29ff93	0.0415035
161	0x3d1ddeb8	0.03854248
162	0xbd9b29da	-0.07576342
163	0x3d8579f1	0.06517399
164	0xbd44dd71	-0.048062745
165	0x3d0b2c54	0.03397782
166	0x3da8b437	0.08237498
167	0x3d8a79b5	0.06761495
168	0xbd463dd3	-0.048398804
169	0x3c893cb4	0.016752578
170	0xbdbc6c56	-0.09200351
171	0x3d1a0c34	0.037609294
172	0x3daa9e89	0.083310194
173	0xbdc6f852	-0.09715332
174	0x3e1fed97	0.15617977
175	0x3da5bd30	0.08092725
176	0x3cb0a13a	0.021561254
177	0xbd96d614	-0.07365051
178	0x3dba435d	0.0909488
179	0x3db057ff	0.08610534
180	0x3e0fd5c7	0.14046393
181	0x3de94758	0.11390561
182	0xbc804368	-0.015657142
183	0x3d5a1464	0.053242102
184	0xbda3d29f	-0.07999157
185	0x3cabfc9e	0.02099448
186	0x3d8a6e2b	0.06759294
187	0x3da735f1	0.081645854
188	0xbcf5bc4d	-0.029997015
189	0x3d003e3e	0.03130936
190	0x3d4422c2	0.04788471
191	0x3e6b2316	0.22962603
192	0x3d5cda7a	0.053919293
193	0xbdd45f30	-0.10369718
194	0x3dc98aef	0.098409526
195	0xbd2ea9ed	-0.042642523
196	0xbd2aed60	-0.041730285
197	0xbe14bb10	-0.14524484
198	0xbb8af3d0	-0.0042404905
199	0x3df6ada5	0.12044839
200	0x3d0f9b76	0.03506037
201	0xbd7d7a2a	-0.061884083
202	0x3d679fae	0.056548767
203	0xbd85849a	-0.06519432
204	0xbd963620	-0.07334542
205	0x3dbe6ddd	0.092982985
206	0x3d92280d	0.07136545
207	0xbcba5c18	-0.022748992
208	0xbd842952	-0.06453194
209	0xbced82a0	-0.02899295
210	0xbda03bbb	-0.07823893
211	0x3c64b890	0.013960019
212	0x3cde3044	0.027122624
213	0xbd908f33	-0.07058563
214	0x3d225456	0.03963121
215	0xbdaa998a	-0.083300665
216	0xbd6c34e0	-0.057667613
217	0x3dccc3e3	0.099983
218	0xbd81d9a4	-0.0634034
219	0x3dcaa31b	0.09894391
220	0x3d71e9b2	0.05906076
221	0xbdb88cb0	-0.09011209
222	0xbd7dc873	-0.06195874
223	0xbd4a2d27	-0.049359467
224	0x3da83289	0.08212764
225	0x3d8d9dc9	0.06914861
226	0x3dabb569	0.083842106
227	0xbd2587d0	-0.040412724
228	0xbd3ab100	-0.045578957
229	0x3d88127f	0.06644153
230	0x3d544046	0.05181911
231	0xbcfb4778	-0.030673727
232	0x3c1f7ee8	0.009734847
233	0x3d2c345a	0.042042114
234	0xbd89bede	-0.06725858
235	0xbda24aab	-0.07924398
236	0x3d832731	0.064039595
237	0x3da67215	0.08127228
238	0x3d4b9bce	0.049709134
239	0xbd01adba	-0.03165982
240	0xbcd68a60	-0.02618903
241	0xbda1f00b	-0.07907113
242	0xbdb77d70	-0.08959472
243	0xbd0a070c	-0.033698127
244	0xbcf20cb8	-0.02954708
245	0x3d317f92	0.04333455
246	0x3c69fcd0	0.014281467
247	0x3d08b44a	0.033375062
248	0xbdc9f86d	-0.098618366
249	0x3b063600	0.0020478964
250	0x3cd7531c	0.026284747
251	0xbd2cab5d	-0.042155612
252	0x3dbce073	0.09222498
253	0xbc4e58c0	-0.012594402
254	0xbc484718	-0.012223981
255	0xbd5449b0	-0.051828086

fc2.bias f4 [50]
0	0x3dde3943	0.108507656
1	0x3d254756	0.040351234
2	0xbdac46c0	-0.08411932
3	0x3aba75e2	0.0014225806
4	0x3d4961d6	0.04916557
5	0xbc19d468	-0.0093890205
6	0x3ca75878	0.020427927
7	0xbd82d51b	-0.06388303
8	0xbda81412	-0.08206953
9	0xbc8b2e47	-0.01698984
10	0xbdb0aa0d	-0.086261846
11	0x3dc0e08d	0.0941783
12	0x3bf77239	0.007551458
13	0xbd4613fa	-0.048358895
14	0x3da8691f	0.08223175
15	0x3c65ef76	0.014034143
16	0x3c386130	0.01125364
17	0xbd73181d	-0.059349168
18	0x3d1492b9	0.036272738
19	0xbbdfe660	-0.0068328828
20	0xbd1e00dd	-0.038575042
21	0xbd8ab864	-0.06773451
22	0x3dc9f0c2	0.09860374
23	0xbd07fb66	-0.033198737
24	0xbc3dd570	-0.011586532
25	0x3d8e50d6	0.06949012
26	0xbdcb286f	-0.099198215
27	0x3dcb7b3f	0.09935617
28	0x3d20af65	0.03922977
29	0x3dff6b7e	0.124716744
30	0xbdb45bcd	-0.08806572
31	0xbd9544e2	-0.07288529
32	0x3dc93861	0.098252065
33	0x3d067137	0.032822814
34	0xbca36194	-0.01994399
35	0xbdecafa7	-0.115569405
36	0x3cddd80c	0.027080558
37	0x3d151df2	0.03640551
38	0xbc851a97	-0.01624803
39	0x3b48cfb3	0.0030641377
40	0x3d8224f0	0.063547015
41	0xbde6f3d2	-0.11276974
42	0x3b948c42	0.0045333216
43	0xbda01515	-0.07816521
44	0xbd112664	-0.035437003
45	0x3d49d4ee	0.04927533
46	0xbdd0f693	-0.1020328
47	0x3d92269d	0.07136271
48	0x3d85d3f7	0.0653457
49	0x3d029918	0.031884283

fc3.weight f4 [3, 50]
0	0x3ea064aa	0.313268
1	0x3ef88ac9	0.48543385
2	0x3cb3d5b8	0.021952495
3	0x3ccb6d65	0.024832437
4	0xbe897bed	-0.2685236
5	0x3d94198c	0.07231435
6	0xbdb69760	-0.08915591
7	0x3d09fab9	0.033686373
8	0xbdae9eaf	-0.0852636
9	0xbdc7b88e	-0.09751998
10	0xbcdfb61e	-0.02730852
11	0xbd8aac0b	-0.06771096
12	0xbceeb37b	-0.029138317
13	0xbd45c254	-0.04828103
14	0xbd1e045c	-0.038578376
15	0xbac17701	-0.0014760197
16	0xbddcf022	-0.10787989
17	0x3e0f3377	0.13984476
18	0xbdd4e6af	-0.10395562
19	0x3d10a078	0.035309285
20	0x3e0d7c9f	0.1381707
21	0xbc71de40	-0.014762461
22	0x3ea1b8d6	0.3158633
23	0x3d38fd40	0.045163393
24	0xbe06db66	-0.13169631
25	0xbdc8ee61	-0.09811092
26	0xbe0f22c6	-0.13978109
27	0x3e93e0e6	0.2888252
28	0x3db480e2	0.08813645
29	0x3eadd154	0.33948767
30	0xbec9f1e8	-0.39442372
31	0x3c324e80	0.010882974
32	0x3d8cca08	0.06874472
33	0xbcd369a3	-0.025807207
34	0x3de1464a	0.10999735
35	0xbe5fa8ec	-0.21841782
36	0x3d5de430	0.054172695
37	0x3d3fcf8c	0.04682879
38	0x3d407abc	0.04699205
39	0x3cc3a98f	0.023884563
40	0x3d9ce148	0.076601565
41	0xbea92b89	-0.33041027
42	0x3d729df3	0.059232663
43	0x3e2596ff	0.16170882
44	0xbd0f7ed2	-0.035033055
45	0x3eb990bd	0.3624324
46	0xbf038b03	-0.5138399
47	0xbd8af3b3	-0.06784763
48	0x3ccbbbdf	0.024869857
49	0xbd6776a4	-0.05650963
50	0xbe0f6346	-0.14002714
51	0xbd071f77	-0.03298899
52	0xbe06f4db	-0.13179342
53	0xbe04c6dc	-0.12966484
54	0x3d33b6ae	0.04387539
55	0x3de1004a	0.10986383
56	0x3deca3e6	0.11554699
57	0x3d8f13d0	0.06986201
58	0x3dfa5f4a	0.12225206
59	0xbe0054e8	-0.12532389
60	0x3de021eb	0.10943969
61	0x3da58246	0.08081488
62	0x3e3f5fef	0.1868894
63	0x3d51e44e	0.05124312
64	0xbdf5b0d5	-0.11996619
65	0x3c42094d	0.011843038
66	0xbb1be940	-0.002379015
67	0xbb632240	-0.0034657866
68	0xbcc76f5b	-0.02434509
69	0xbd82f44c	-0.06394252
70	0x3e2d03ea	0.16896024
71	0x3c360760	0.011110157
72	0x3e34f9c8	0.17673409
73	0x3dce9a42	0.10088016
74	0x3d470f90	0.048598826
75	0x3d02f320	0.031970143
76	0xbd8721a2	-0.06598212
77	0x3e0a8033	0.13525467
78	0x3df61d3f	0.12017297
79	0x3d0972b6	0.033556662
80	0xbe04701f	-0.12933396
81	0xbd83418a	-0.06408985
82	0x3d036410	0.03207785
83	0x3e1b9098	0.15191877
84	0x3e0a6123	0.13513617
85	0xbd785418	-0.060627073
86	0x3da81b82	0.08208372
87	0x3dc66034	0.09686318
88	0x3e07950d	0.13240452
89	0x3df340ec	0.11877617
90	0x3e1a0309	0.1504022
91	0x3d830c7e	0.06398867
92	0xbe369893	-0.1783164
93	0x3e3e8238	0.18604362
94	0x3d1da764	0.038489714
95	0x3e52ed23	0.20598273
96	0x3e05f308	0.1308099
97	0xbe0c3444	-0.13691813
98	0xbd9eb656	-0.077496216
99	0xbe2e3a4e	-0.17014429
100	0x3d555308	0.052081138
101	0xbf06e170	-0.5268774
102	0xbd0f731e	-0.035021894
103	0x3e2cf689	0.1689092
104	0x3e7f81cd	0.24951859
105	0xbd296dd4	-0.041364506
106	0x3dbe5c80	0.09294987
107	0x3d869e38	0.065731466
108	0xbda4d526	-0.08048467
109	0x3e21ec25	0.15812738
110	0x3dd51b4c	0.10405597
111	0xbe064330	-0.13111567
112	0xbb370cba	-0.002793117
113	0x3dc5a101	0.0964985
114	0x3d92b20c	0.07162866
115	0xbdf94b41	-0.12172557
116	0x3d3f5d7c	0.046720013
117	0xbc716490	-0.014733449
118	0x3daf88ca	0.08571012
119	0xbd6bab10	-0.057536185
120	0xbe9bcd98	-0.30430293
121	0x3dcf6c84	0.101281196
122	0xbecaaa24	-0.39582932
123	0xbe8026e4	-0.2502967
124	0xbda6a8b6	-0.08137648
125	0xbe1b1206	-0.15143594
126	0x3e9905bd	0.2988719
127	0xbde69001	-0.11257935
128	0x3cb7ebbd	0.022451276
129	0xbefe5a71	-0.49678376
130	0x3eb98693	0.36235484
131	0xbd62290e	-0.055214934
132	0xbdc8a644	-0.09797338
133	0xbe7a09da	-0.2441782
134	0xbcaaa364	-0.020829864
135	0x3e047601	0.1293564
136	0x3dd53afe	0.104116425
137	0xbd94a53f	-0.07258081
138	0x3e09dcac	0.13463086
139	0xbe45fdf4	-0.19335157
140	0xbed4c029	-0.41552857
141	0x3ec7ecc2	0.3904782
142	0x3da933bc	0.08261821
143	0xbcef2dc4	-0.029196627
144	0xbe102ba4	-0.14079148
145	0xbe72eb48	-0.23722565
146	0x3eeb48e1	0.4595404
147	0x3e2f8124	0.17139107
148	0xbde316c3	-0.11088326
149	0x3d6d5808	0.05794528

fc3.bias f4 [3]
0	0xbd7ced82	-0.061749943
1	0x3dee906c	0.1164864
2	0xbe80d41c	-0.25161827
