course/general/code/frameworks_basics/pytorch/irisnet.model (torch_old, 23860 bytes, 6 tensors)

fc1.weight f4 [100, 4]
0	0x3e12a2a0	0.14319849
1	0xbe515ab7	-0.20444761
2	0xbd4cd1fa	-0.050004937
3	0xbd9230b4	-0.07138196
4	0x3ec8e6e0	0.39238644
5	0x3e99a213	0.30006465
6	0x3eb37cc8	0.35056138
7	0x3dab4265	0.08362273
8	0xbe3d8740	-0.18508625
9	0xbeda5b86	-0.42647952
10	0xbeff73d2	-0.4989305
11	0xbdbf70a0	-0.093476534
12	0x3e3af54f	0.1825764
13	0xbf03a233	-0.5141937
14	0x3eec74f8	0.4618299
15	0x3ebe0ae1	0.37117675
16	0xbef69dd8	-0.481673
17	0x3e9861f8	0.29762244
18	0x3ec0cb36	0.37655038
19	0xbee9f61a	-0.45695573
20	0xbed09e30	-0.40745687
21	0xbe91096c	-0.283275
22	0xbed1b9ca	-0.40962058
23	0x3eb6b1e4	0.35682595
24	0xbeb03e9c	-0.34422767
25	0xbeed5aca	-0.4635833
26	0xbe6a8958	-0.22903955
27	0xbdea78f0	-0.11448848
28	0x3e5423c4	0.20716769
29	0x3eca5704	0.39519513
30	0x3c15d248	0.009144373
31	0xbf062ccb	-0.524121
32	0xbdb0dffb	-0.08636471
33	0x3e1cc86c	0.1531083
34	0x3f1d0cc1	0.61347586
35	0x3f06534f	0.5247087
36	0xbd882078	-0.06646818
37	0xbea1b960	-0.31586742
38	0xbe076880	-0.13223457
39	0x3db29858	0.087204635
40	0x3ee28208	0.4423983
41	0x3f0b8945	0.5450633
42	0xbf083732	-0.5320922
43	0xbf1189fe	-0.56851184
44	0x3d4fbe2c	0.05071847
45	0xbea2a941	-0.31769755
46	0x3f03d407	0.51495403
47	0xbecd647e	-0.40115732
48	0x3e7272e4	0.2367664
49	0xbeaa40d9	-0.332526
50	0x3d8e7183	0.069552444
51	0x3efe26e9	0.4963906
52	0x3cdc3135	0.026878932
53	0x3cc5eda8	0.024161175
54	0x3b574d41	0.0032852443
55	0x3ecf7788	0.40520883
56	0x3d745dc4	0.059659734
57	0xbdd1aa16	-0.102375194
58	0x3e255008	0.16143811
59	0xbe180abe	-0.14847848
60	0xbe07a9a4	-0.13248307
61	0xbe7ffc70	-0.24998641
62	0xbdc1cf28	-0.0946334
63	0xbccf7360	-0.02532357
64	0xbd6dc147	-0.05804565
65	0x3e8d4d1e	0.27597898
66	0x3f013537	0.50471824
67	0x3e8b793e	0.27240938
68	0xbe072d78	-0.13200939
69	0x3e67f870	0.22653365
70	0x3e44db45	0.1922427
71	0x3f0a5442	0.5403482
72	0xbe8f82d2	-0.28029495
73	0xbd8b4fe0	-0.06802344
74	0x3e58a704	0.21157461
75	0xbe8559ae	-0.26044983
76	0xbe478174	-0.19482976
77	0xbd17a320	-0.037020802
78	0xbecd5c18	-0.40109324
79	0x3ee89b66	0.4543106
80	0xbdf6f7c2	-0.12058975
81	0x3efcbbf8	0.4936216
82	0x3e8c9216	0.27455205
83	0x3ec64a8b	0.38728747
84	0x3eb24a6b	0.348224
85	0x3e2c5868	0.168306
86	0x3eae0b5b	0.3399304
87	0xbba9b6b4	-0.0051792506
88	0xbe4a6038	-0.19763267
89	0xbea5ba88	-0.32368875
90	0x3e054004	0.13012701
91	0xbed7e658	-0.42167926
92	0x3efb73cf	0.49111792
93	0x3dcdfaff	0.10057639
94	0x3e14a46f	0.14515851
95	0xbe8bd841	-0.27313426
96	0x3ddd688e	0.10810958
97	0x3d1db225	0.03849997
98	0xbe2a84fa	-0.16652289
99	0x3dcf058c	0.1010848
100	0x3d979acc	0.07402572
101	0x3ecc7898	0.39935756
102	0x3eecc760	0.4624586
103	0xbdba6428	-0.091011345
104	0x3d335c90	0.043789446
105	0xbe471dd4	-0.19444972
106	0xbef0e32a	-0.47048312
107	0xbe42ee10	-0.19036126
108	0x3ebda4bf	0.37039754
109	0x3d6469f5	0.05576511
110	0x3e8fa7b4	0.28057635
111	0xbe731d4f	-0.23741649
112	0x3efd14ae	0.4942984
113	0x3ebdcd6d	0.3707079
114	0xbd9a6667	-0.07539063
115	0xbe382c26	-0.17985591
116	0xbc9da429	-0.019243317
117	0xbea20833	-0.3164688
118	0x3ef4b12a	0.47791415
119	0xbe948994	-0.29011214
120	0x3dca4a95	0.09877507
121	0xbd9f8fd0	-0.07791102
122	0x3ec8296e	0.39094108
123	0xbdde1bbb	-0.10845133
124	0xbec02768	-0.37530065
125	0xbee36f82	-0.4442101
126	0xbe2a3690	-0.16622376
127	0xbd795820	-0.06087506
128	0xbe2b90c4	-0.16754442
129	0xbef799b6	-0.4835946
130	0x3e6f5ea8	0.23375952
131	0x3e2b8d34	0.16753083
132	0xbed9117c	-0.42396152
133	0xbe060d84	-0.13091093
134	0x3eed3a74	0.4633366
135	0xbe074e18	-0.13213384
136	0xbe931089	-0.28723553
137	0x3c8a734c	0.016900681
138	0x3e9080e2	0.2822333
139	0x3e684226	0.22681484
140	0x3e06c437	0.13160788
141	0xbeec96a3	-0.46208677
142	0x3e0f7346	0.14008817
143	0xbc907128	-0.017632082
144	0xbe9a79a2	-0.30170923
145	0xbe65810c	-0.22412509
146	0xbedb3808	-0.42816186
147	0x3e97f7e0	0.296813
148	0xbc2cc800	-0.010545731
149	0xbde47120	-0.111543894
150	0xbe65bc0c	-0.22435015
151	0xbe0af744	-0.13570887
152	0x3e8a80f6	0.27051514
153	0xbe73113f	-0.23737048
154	0x3dc9f375	0.09860889
155	0xbe8c4a23	-0.27400312
156	0xbe986526	-0.2976467
157	0xbe6130a8	-0.21991217
158	0xbedc8652	-0.43071228
159	0x3e0903f4	0.13380414
160	0x3ef916d8	0.4865024
161	0xbe219e37	-0.1578301
162	0x3ec09ae7	0.3761818
163	0xbeab0147	-0.33399412
164	0xbdf71b07	-0.12065702
165	0x3ca92fc1	0.020652654
166	0x3f020417	0.5078749
167	0xbe801941	-0.25019267
168	0xbc2d5dc0	-0.010581434
169	0xbdb34440	-0.08753252
170	0xbe8a8c82	-0.27060324
171	0x3eff9824	0.49920762
172	0x3d98b51d	0.074564196
173	0xbe139fea	-0.14416471
174	0xbe04df60	-0.12975836
175	0x3efec681	0.4976082
176	0x3eea73a7	0.4579136
177	0xbeb06d48	-0.34458375
178	0x3e42058a	0.18947425
179	0x3e9995bd	0.29997054
180	0xbed50d40	-0.4161167
181	0x3d52c190	0.051454127
182	0x3ed9df66	0.42553252
183	0xbec94938	-0.39313674
184	0xbe6aab8c	-0.22917002
185	0x3e4bd870	0.19906783
186	0xbd8fff40	-0.07031107
187	0xbead373a	-0.33831197
188	0x3e081f3e	0.13293168
189	0x3dab13dd	0.08353398
190	0x3de6133f	0.1123414
191	0x3e8e837d	0.27834693
192	0xbea48640	-0.32133675
193	0xbe17d300	-0.14826584
194	0xbdc7bbe8	-0.09752637
195	0x3ec9b100	0.39392853
196	0xbecb19f4	-0.39668238
197	0x3e80bbd4	0.251433
198	0x3dc88610	0.097911954
199	0xb9b61000	-0.00034725666
200	0x3e1c514d	0.15265389
201	0xbe903844	-0.28167927
202	0x3e7a7366	0.24458084
203	0x3eedf04c	0.46472394
204	0xbeb6a8da	-0.356757
205	0xbe6db6bc	-0.23214239
206	0xbe0f7518	-0.14009511
207	0x3d6e5dd0	0.058194935
208	0xbeac9e9e	-0.33714765
209	0xbea8762e	-0.32902664
210	0x3ecec29e	0.40382856
211	0x3d16bf30	0.036803424
212	0x3d557f08	0.0521231
213	0xbe5d938b	-0.21638314
214	0x3d6aaec1	0.057295565
215	0xbeec84f6	-0.4619519
216	0xbecc636e	-0.3991961
217	0x3e9027d2	0.2815538
218	0x3e97f1be	0.29676622
219	0x3d887fa3	0.0666497
220	0xbed9a028	-0.42505002
221	0x3e91620a	0.2839511
222	0x3e2a82b0	0.16651416
223	0x3cf1f960	0.029537857
224	0x3eca33d5	0.3949267
225	0xbdc48c1f	-0.095970385
226	0x3edaa7e7	0.42706224
227	0x3f05f9df	0.523344
228	0x3f0009ea	0.5001513
229	0x3da59d06	0.080865905
230	0xbeee59e8	-0.46552968
231	0xbe33b07f	-0.17547797
232	0xbe7d1f74	-0.2471903
233	0x3d9bbbb0	0.07604158
234	0x3e34dd44	0.17662531
235	0xbeb0f272	-0.3455997
236	0xbe4b2462	-0.19838098
237	0x3ee34460	0.44388103
238	0xbe8c4283	-0.27394494
239	0xbda84517	-0.08216303
240	0x3eefafe2	0.46813875
241	0x3e80a55b	0.25126156
242	0x3ef9a12f	0.48755786
243	0x3e0817c2	0.13290313
244	0xbe99471a	-0.2993706
245	0x3d72e0e0	0.05929649
246	0xbea59cba	-0.32346135
247	0x3e7999d8	0.24375093
248	0xbeb6d138	-0.35706496
249	0xbe81b406	-0.2533266
250	0x3e9972ac	0.299703
251	0x3e8b2e16	0.27183598
252	0xbeb6a052	-0.3566919
253	0x3e4ad768	0.19808733
254	0xbe9e96b8	-0.30974364
255	0x3dba4da8	0.09096843

fc1.bias f4 [100]
0	0xbd7c9cf8	-0.061673135
1	0xbedc7361	-0.43056777
2	0xbe7c0d88	-0.24614537
3	0x3dab9941	0.0837884
4	0x3cd17460	0.025568187
5	0xbea71c42	-0.32638747
6	0x3d20d730	0.03926772
7	0xbd6c22c1	-0.05765033
8	0x3ea14ad9	0.31502417
9	0x3e568064	0.20947415
10	0x3d663c4e	0.056209855
11	0x3e21be1f	0.15795182
12	0xbe1bfb85	-0.15232666
13	0x3ef4f279	0.47841242
14	0x3e3cff7a	0.18456832
15	0x3ef9b916	0.48774022
16	0xbc287744	-0.010282341
17	0xbf016ddd	-0.50558263
18	0xbd275d50	-0.040860474
19	0xbe362918	-0.17789114
20	0xbe9498eb	-0.29022917
21	0x3e9fd2a4	0.31215394
22	0x3ea3e88e	0.32013363
23	0xbe4fe047	-0.20300399
24	0xbefbdb9b	-0.49190983
25	0x3eeb4f34	0.45958865
26	0xbeaf0e3e	-0.34190553
27	0x3ef03073	0.46911964
28	0xbe945d23	-0.28977308
29	0xbeabd05d	-0.33557406
30	0xbe80d8d6	-0.25165433
31	0xbe0879ac	-0.13327664
32	0x3e9b8c46	0.30380458
33	0x3dbf65c0	0.09345579
34	0xbebfc2eb	-0.37453398
35	0xbe568e76	-0.20952782
36	0xbefa47b8	-0.48882842
37	0x3e358854	0.17727786
38	0x3e583f6c	0.21117944
39	0x3dd55a10	0.10417569
40	0xbe8eba33	-0.27876434
41	0xbe2aca1d	-0.16678663
42	0xbe7320b0	-0.23742938
43	0xbdaca15d	-0.08429215
44	0xbe83b9bb	-0.2572764
45	0xbe907b94	-0.28219283
46	0x3d16f5d0	0.03685552
47	0xbcc3b51a	-0.023890067
48	0x3ef4b2fe	0.4779281
49	0xbe8837a6	-0.26604956
50	0xbc140832	-0.009035157
51	0x3e7cee40	0.2470026
52	0xbe0c2ccc	-0.13688964
53	0x3eb88205	0.36036697
54	0x3eee2286	0.46510714
55	0x3ef26818	0.47345042
56	0x3dd9ee7a	0.10641189
57	0xbe8c2709	-0.2737353
58	0xbece0f2c	-0.4024595
59	0x3d73e2d4	0.059542492
60	0xbeedf762	-0.464778
61	0xbef12298	-0.47096705
62	0xbe8ca782	-0.27471548
63	0x3eb9fc78	0.3632543
64	0xbed867aa	-0.4226659
65	0xbe5487b8	-0.20754898
66	0xbd747cd0	-0.059689343
67	0x3e3cf917	0.18454395
68	0x3ea457d1	0.3209825
69	0xbe6f9104	-0.23395163
70	0xbbbb0b80	-0.005708158
71	0x3e87f5f4	0.26554835
72	0x3ed7552a	0.42057163
73	0x3e82b9f7	0.25532505
74	0x3df92fcf	0.12167322
75	0xbef9fb35	-0.48824468
76	0x3d987337	0.074438505
77	0xbe8f2c1a	-0.27963334
78	0xbe52d588	-0.20589268
79	0xbe31c458	-0.17360055
80	0xbd9f35b0	-0.07773912
81	0xbea6f684	-0.32609951
82	0xbe89ce22	-0.2691508
83	0xbed111e2	-0.40833956
84	0xbeb682c8	-0.35646653
85	0x3e55e069	0.20886387
86	0xbdf74658	-0.12073964
87	0x3dd8eadf	0.10591673
88	0x3e889c32	0.26681668
89	0x3cae208b	0.021255752
90	0x3e9fc532	0.31205136
91	0xbd9fbde8	-0.077998936
92	0xbe7726ff	-0.2413597
93	0xbc86fee0	-0.016478956
94	0xbb738400	-0.0037157536
95	0xbe8ec710	-0.27886248
96	0x3dbf8d63	0.09353139
97	0xbed04102	-0.40674597
98	0x3d35e7b0	0.044410408
99	0x3ed6e936	0.419748

fc2.weight f4 [50, 100]
0	0x3d7f371a	0.06230841
1	0xbd9c7db5	-0.07641164
2	0xbc4220c0	-0.0118486285
3	0xbdbb8ded	-0.091579296
4	0x3c0d5c40	0.008627951
5	0xbce49798	-0.027904317
6	0x3c783b30	0.01515083
7	0xbc6f2bad	-0.014597815
8	0xbda109dc	-0.07863209
9	0xbd8d896e	-0.06910978
10	0x3cf47af8	0.029843792
11	0xbd7a5a19	-0.06112108
12	0xbd81d387	-0.06339174
13	0xbd3a248b	-0.045445006
14	0x3d7dcfb2	0.06196565
15	0xbbf65020	-0.007516876
16	0x3da91fea	0.0825804
17	0x3d7f6773	0.062354516
18	0x3c96c3c8	0.018403903
19	0x3d2b79b2	0.041864105
20	0x3d7fd60a	0.062459983
21	0xbce915cd	-0.028452778
22	0xbd5e3f73	-0.05425973
23	0x3db56601	0.08857346
24	0x3c26eb79	0.010187977
25	0x3be8b147	0.007101211
26	0x3d68ccfa	0.056836106
27	0xbc7128ea	-0.014719227
28	0x3c134ee7	0.00899098
29	0xbd4f601a	-0.05062876
30	0x3cfbbfd9	0.030731129
31	0x3d4509da	0.0481051
32	0xbd379747	-0.044822004
33	0xbce2f5b4	-0.027705051
34	0x3b92c9e0	0.004479632
35	0xbcfedc34	-0.03111086
36	0xbd849168	-0.064730465
37	0xbdbe711a	-0.09298916
38	0x3d1ae40e	0.037815146
39	0x3dac9d41	0.08428431
40	0xbc5a5c33	-0.013327646
41	0xbdb960e3	-0.09051683
42	0x3da910d1	0.082551606
43	0xbb3657c0	-0.00278233
44	0x3cbb099b	0.022831729
45	0x3d5a7db2	0.05334253
46	0xbd9ee2a0	-0.07758069
47	0x3dc48405	0.09595493
48	0x3d8eecd9	0.06978769
49	0x3d8a7553	0.06760659
50	0x3d068cf6	0.032849275
51	0xbd2aed1d	-0.041730035
52	0x3cbc6b40	0.02300036
53	0xbd9d2473	-0.07672968
54	0x3d5754bf	0.052571055
55	0x3d3ad15a	0.04560981
56	0x3db15e87	0.08660608
57	0xbda1c7bc	-0.078994244
58	0xba214f00	-0.00061534345
59	0x3dac19f3	0.08403387
60	0xbd5096e5	-0.050925154
61	0x3d87b955	0.06627146
62	0xbd5d4203	-0.05401803
63	0xbd9026be	-0.070386395
64	0xbdc7e28a	-0.09760006
65	0xbcb21cec	-0.021742307
66	0xbdb0b57f	-0.08628368
67	0x3c8b1d61	0.016981782
68	0xbd8336d5	-0.06406943
69	0x3c706fc0	0.014675081
70	0x3d98ddf1	0.07464207
71	0xbd04c580	-0.032414913
72	0xbb60716a	-0.0034247288
73	0xbd300ecf	-0.042982873
74	0xbdc55d73	-0.09636965
75	0x3d724587	0.059148338
76	0x3cc09c8c	0.023512147
77	0x3d08df5e	0.033416145
78	0xbd158bd4	-0.036510304
79	0xbd35ed63	-0.044415843
80	0x3d870589	0.065928526
81	0xbd2bd8dd	-0.041954864
82	0xbd8a6c7c	-0.06758973
83	0xbd7a3b0a	-0.06109146
84	0x3bdce7cc	0.0067414995
85	0x3d2485fe	0.040166847
86	0x3dc0179f	0.09379505
87	0x3d0acf16	0.0338889
88	0x3d0cd53e	0.03438305
89	0x3cb13db2	0.021635864
90	0x3dc38084	0.09545997
91	0x3d6a2b0e	0.057169966
92	0xbd9adffd	-0.075622536
93	0x3c5a5718	0.013326429
94	0xbc212530	-0.009835526
95	0x3d088130	0.033326328
96	0xbd6fa57b	-0.058507424
97	0xbc493a07	-0.012281901
98	0x3d0db1c6	0.034593366
99	0x3d857881	0.06517125
100	0x3db41141	0.087923534
101	0xbd690fb0	-0.056899726
102	0xbd360773	-0.044440698
103	0x3dbc7a10	0.09202969
104	0xbc7bb558	-0.01536306
105	0x3d96ed83	0.073695205
106	0x3d10e79a	0.035377122
107	0x3cbb4b9d	0.022863204
108	0xbd4eaea4	-0.05045952
109	0xbda4dd50	-0.080500245
110	0x3d2e015b	0.04248176
111	0xbd5e1219	-0.054216478
112	0x3d962a9d	0.073323466
113	0xbc7fd0de	-0.015613763
114	0xbd1ded8f	-0.03855663
115	0xbc84bcc8	-0.0162033
116	0x3d46638f	0.04843479
117	0x3d98e736	0.07465975
118	0x3ca50740	0.020145059
119	0xbdc0e93d	-0.09419487
120	0xbd8289f7	-0.06373971
121	0xbd28b70b	-0.04119019
122	0x3d811141	0.06302119
123	0xbcfeec95	-0.03111867
124	0x3dc32270	0.09528053
125	0xbd42f0c0	-0.04759288
126	0xbdb9321a	-0.09042759
127	0x3cb142f1	0.021638365
128	0xbc2c25ff	-0.010507106
129	0x3cd1cb6e	0.025609698
130	0x3cd7b8f1	0.026333304
131	0x3cdcba04	0.026944168
132	0xbda87f2d	-0.08227382
133	0xba1eaf00	-0.0006053299
134	0x3d3ce13d	0.04611324
135	0x3d11cedc	0.035597667
136	0xbd501a0d	-0.050806094
137	0xbce460ec	-0.027878247
138	0xbdbc838f	-0.0920478
139	0xbc8429d4	-0.016133226
140	0xbc1cd11b	-0.009571339
141	0x3d1185a1	0.03552783
142	0xbd30d5b7	-0.043172564
143	0x3d378b19	0.04481039
144	0x3d791d65	0.06081905
145	0xbd8ec472	-0.06971063
146	0x3b2fdaa0	0.0026833192
147	0x3d616f48	0.055037767
148	0x3d9bcaf1	0.076070674
149	0x3b8674b0	0.0041032657
150	0x3c685a35	0.014181663
151	0x3d62153a	0.055196024
152	0xbd955aba	-0.07292695
153	0x3a28e716	0.0006443126
154	0x3d687d4b	0.056760114
155	0x3daec117	0.08532923
156	0x3d52de40	0.051481485
157	0x3ca15920	0.019695818
158	0xbd8e4463	-0.069466375
159	0xbd8db792	-0.06919779
160	0xbd476e0b	-0.04868893
161	0xbc0c1a18	-0.008551143
162	0x3dbfe799	0.093703456
163	0x3d1bff8a	0.038085498
164	0xba27d072	-0.0006401605
165	0xbc067f40	-0.00820905
166	0xbd3d427d	-0.046205986
167	0x3d099013	0.033584666
168	0xbca7c81d	-0.020481164
169	0xbd19cb43	-0.03754736
170	0x3c7b99a8	0.015356459
171	0xbd42749a	-0.04747448
172	0xbd9bd4dc	-0.07608959
173	0xbd19513a	-0.03743098
174	0xbdbf6a1f	-0.09346413
175	0x3ca9ea40	0.020741582
176	0x3cefedce	0.029288199
177	0xbd90befd	-0.07067678
178	0xbd0496ac	-0.032370254
179	0xbd760820	-0.060066342
180	0x3dc467c7	0.095901065
181	0xbdc81c0a	-0.09770973
182	0xbd7f005a	-0.062256195
183	0xbdcd8cfd	-0.10036657
184	0x3cdc6794	0.026904859
185	0xbcc08ecb	-0.023505589
186	0x3d7c4e02	0.06159783
187	0x3d13a028	0.03604141
188	0xbdba9840	-0.09111071
189	0x3cb99028	0.022651747
190	0xbd69e797	-0.057105627
191	0x3d1a9c66	0.03774681
192	0x3d0509c9	0.032480035
193	0xbd91b63a	-0.07114835
194	0x3d97a86f	0.07405173
195	0xbd029114	-0.03187664
196	0xbd8270d8	-0.063691795
197	0x3cd85a94	0.026410379
198	0x3ca5808c	0.020202897
199	0xbcee1d68	-0.029066756
200	0xbd9acaab	-0.07558187
201	0xbc80a794	-0.015704907
202	0x3c68e1b0	0.014213964
203	0x3e044e45	0.12920482
204	0xbc8e8e88	-0.017401949
205	0x3b048fc0	0.0020227283
206	0x3d8284cf	0.063729875
207	0x3d74ea03	0.059793483
208	0x3dd37b1c	0.103262156
209	0x3d7e2f5e	0.06205689
210	0xbc4d3d30	-0.012526795
211	0xbd3ed018	-0.046585172
212	0x3dddf5c6	0.10837893
213	0x3d64b976	0.05584093
214	0xbd164dbf	-0.03669524
215	0xbda0e115	-0.07855431
216	0x3da11829	0.07865936
217	0x3d22eba9	0.039775524
218	0x3b9d7550	0.0048052445
219	0xbcd5f7d8	-0.026119158
220	0x3b9c51a6	0.0047704754
221	0xbcc96914	-0.024586238
222	0xbc9acd78	-0.018896803
223	0xbd319e5e	-0.04336392
224	0x3d44a771	0.048011247
225	0xb9ef97e2	-0.00045698794
226	0xbd2f0fd0	-0.04273969
227	0x3dadd3f3	0.08487692
228	0xbdcbf0c6	-0.09958033
229	0xbda53e55	-0.080685295
230	0xbbba3ce1	-0.005683527
231	0x3dc4e36b	0.09613689
232	0x3d7522ca	0.05984763
233	0x3dbd70a3	0.092499994
234	0xbc3ea354	-0.01163562
235	0xbd8e093a	-0.069353536
236	0x3d89c2bd	0.067265965
237	0x3d20d882	0.039268978
238	0xbcc93148	-0.024559632
239	0xba29c800	-0.00064766407
240	0x3b266375	0.002538887
241	0xbd2003f2	-0.039066263
242	0xbda8e4ee	-0.0824679
243	0xbbfb45c9	-0.007668231
244	0x3e1459b0	0.14487338
245	0xbcd88f0c	-0.026435398
246	0x3d90426d	0.0704392
247	0xbd1511e6	-0.036394022
248	0x3d7f528a	0.062334575
249	0x3c9bfb34	0.019040681
250	0x3ab04654	0.0013448694
251	0xbd0d017a	-0.034425236
252	0x3c87ed00	0.016592503
253	0x3d35a407	0.04434588
254	0x3a43be4d	0.00074670167
255	0x3db31ff3	0.08746328

fc2.bias f4 [50]
0	0x3d61ccce	0.055126958
1	0x3d815f12	0.06316961
2	0x3d93a8b7	0.07209914
3	0xbd9fcc5a	-0.07802649
4	0xbd65e959	-0.05613074
5	0xbb249f62	-0.0025119414
6	0xbd00345a	-0.031299926
7	0x3d137dfa	0.036008812
8	0xbd0cec75	-0.03440519
9	0x3d4e9dc6	0.050443433
10	0x3cc25f3f	0.023727058
11	0x3d219d22	0.039456494
12	0xbc54a328	-0.012978353
13	0xbd21bc4b	-0.03948621
14	0xbdfe6a79	-0.12422652
15	0xbdc191b5	-0.094516195
16	0x3d77104a	0.06031827
17	0x3c8475af	0.016169397
18	0x3cbcddfc	0.02305507
19	0x3e0830b5	0.1329983
20	0xbdb800b5	-0.0898451
21	0x3ca81c14	0.020521201
22	0xbc89576b	-0.016765317
23	0xbdae6cf0	-0.08516872
24	0x3d8aca36	0.0677685
25	0x3dbd088d	0.092301466
26	0x3d939f17	0.07208078
27	0x3d25ead3	0.04050715
28	0x3d3b3808	0.045707732
29	0x3dfe22e6	0.12409
30	0x3dc4b845	0.09605459
31	0x3cece0e9	0.02891584
32	0x3c65bbb0	0.014021799
33	0xbd2bc5f1	-0.04193682
34	0xbd83380a	-0.06407173
35	0xbd3c49d0	-0.04596883
36	0x3d7f48e2	0.062325366
37	0xbd3fdeed	-0.046843458
38	0x3ce2c67c	0.027682535
39	0xbd5278fa	-0.051384903
40	0x3d2c9544	0.04213454
41	0x3d9aad11	0.07552541
42	0x3daa709b	0.08322259
43	0xbd5d9de3	-0.05410565
44	0x3d6a990f	0.057274874
45	0x3cea1ab9	0.028577195
46	0xbc8fd7af	-0.0175589
47	0xbc477d99	-0.012175941
48	0x3df1441b	0.11780568
49	0x3d68f679	0.05687568

fc3.weight f4 [3, 50]
0	0x3ce818c0	0.028332114
1	0x3daad11a	0.08340664
2	0xbe850067	-0.2597687
3	0x3e50213a	0.20325175
4	0xbebd0651	-0.36918882
5	0x3b9d5d7d	0.0048024044
6	0x3dc41f1a	0.09576245
7	0xbccc15e4	-0.024912782
8	0xbdfc3245	-0.12314276
9	0xbc133e00	-0.00898695
10	0xbef3d588	-0.4762385
11	0x3dc10cd8	0.09426278
12	0x3d831296	0.06400029
13	0xbebd776b	-0.3700517
14	0xbe61c82b	-0.22049014
15	0xbdef20d8	-0.11676186
16	0x3d5fa93c	0.054604754
17	0xbe092d11	-0.13396098
18	0xbd8f70d7	-0.07003944
19	0x3e710354	0.23536426
20	0xbdde6ce7	-0.10860615
21	0xbe4f2cc0	-0.20231915
22	0xbeb11a4b	-0.34590372
23	0xbc814300	-0.015779018
24	0x3e8e099a	0.277417
25	0xbc2e7c00	-0.010649681
26	0x3db36d1c	0.08761045
27	0x3d2ab52b	0.04167668
28	0xbe93ea7c	-0.28889835
29	0x3eda35b6	0.42619103
30	0x3c7d8f02	0.01547599
31	0x3da57636	0.080791876
32	0x3e0a174f	0.13485454
33	0x3c4ea0e2	0.0126116
34	0xbd6f895e	-0.058480613
35	0xbdb2fa80	-0.08739185
36	0xbda06968	-0.07832605
37	0xbd52d54e	-0.051472954
38	0x3ee80663	0.45317373
39	0xbdd0823a	-0.10181089
40	0x3da86fa7	0.08224421
41	0x3da158d0	0.07878268
42	0x3de10547	0.10987335
43	0xbd9a9c37	-0.07549327
44	0x3ce8fbfc	0.028440468
45	0x3e61851a	0.2202343
46	0x3dad694b	0.08467349
47	0xbdc07a5b	-0.093983375
48	0x3dd13f97	0.10217207
49	0xbd7581c4	-0.059938207
50	0xbd02d552	-0.03194172
51	0x3b08125a	0.0020762892
52	0x3d8907ed	0.06690965
53	0xbe61d6f8	-0.2205466
54	0xbdad82bc	-0.08472201
55	0x3d6d3a7b	0.0579171
56	0xbe017d37	-0.12645422
57	0xbd202996	-0.03910216
58	0x3dbc2bb3	0.091880225
59	0xbd7d44fe	-0.061833374
60	0xbc118e92	-0.008884089
61	0x3ccb07b8	0.024783954
62	0xbe0b060b	-0.13576524
63	0xbd532248	-0.051546365
64	0xbc89ef58	-0.01683776
65	0xbd4cbd2a	-0.04998509
66	0xbd064f24	-0.032790318
67	0x3d81931d	0.06326888
68	0x3db65196	0.0890228
69	0x3e8a8be2	0.27059847
70	0x3dc0174e	0.09379445
71	0x3dbc8541	0.09205104
72	0x3dbe7c8c	0.09301099
73	0xbdf9dd7c	-0.12200448
74	0x3e690549	0.22755922
75	0xbd1b516e	-0.037919454
76	0xbd1cc0ee	-0.03826993
77	0x3d8e3680	0.06943989
78	0xbe29005b	-0.16504042
79	0x3c57c127	0.01316861
80	0x3dcafbbb	0.09911295
81	0xbdd0edff	-0.10201644
82	0xbca6cadc	-0.020360403
83	0xbdb824bc	-0.089913815
84	0x3ced7148	0.02898468
85	0xbe0096ee	-0.12557575
86	0x3c2a0f00	0.010379553
87	0xbd5657dc	-0.052329883
88	0x3e658a35	0.22416003
89	0x3de2f452	0.11081757
90	0xbd44ccdd	-0.048046935
91	0x3cf35a70	0.02970621
92	0x3d7101e7	0.058839705
93	0xbdcfaf09	-0.10140807
94	0x3e151ddd	0.14562173
95	0xbe46f16b	-0.19428031
96	0x3df9f4f6	0.12204926
97	0x3d159ade	0.036524646
98	0x3e3eacd9	0.18620624
99	0xbdc1ee57	-0.09469288
100	0x3dd0d73a	0.10197301
101	0xbe09808e	-0.13427946
102	0x3e308148	0.17236817
103	0x3dc4e03e	0.09613083
104	0x3e80b453	0.25137576
105	0xbd7a1999	-0.061059568
106	0x3d87faf0	0.066396594
107	0xbc93d3a8	-0.018045262
108	0x3e067d95	0.13133843
109	0x3ddd9204	0.10818866
110	0x3f115caa	0.5678202
111	0xbe0c6222	-0.1370931
112	0xbdc2d8c8	-0.09514004
113	0x3ea9546e	0.33072227
114	0x3ef2bfcd	0.47411957
115	0xbd9afab8	-0.07567352
116	0x3d1eaee4	0.038741007
117	0xbddfbf26	-0.109251305
118	0x3db482f5	0.088140406
119	0xbeb9bf6f	-0.36278865
120	0x3e14dc94	0.14537269
121	0x3e517e5a	0.20458356
122	0x3e3084ac	0.1723811
123	0x3c521290	0.012821808
124	0xbeacf534	-0.33780825
125	0xbcbfd6f0	-0.02341792
126	0xbd83fa57	-0.06444233
127	0xba272dfb	-0.0006377396
128	0x3ea32d02	0.31870276
129	0xbf0e97c4	-0.55700326
130	0xbd3f3998	-0.046685785
131	0xbc8e8d01	-0.01740122
132	0xbb645c80	-0.0034845173
133	0x3c86a8d1	0.01643792
134	0xbd937dcc	-0.07201728
135	0xbd8d9fac	-0.069152206
136	0xbd0b7296	-0.034044825
137	0x3da60448	0.08106285
138	0xbf15618d	-0.58351976
139	0x3da7e28c	0.08197507
140	0x3cebf3b1	0.028802725
141	0xbdd4b7a2	-0.10386588
142	0xbe083164	-0.13300091
143	0x3d808e70	0.06277168
144	0xbde23144	-0.11044553
145	0x3d10790d	0.035271693
146	0xbcdbe89b	-0.026844313
147	0xbda67f7e	-0.08129786
148	0xbeab7841	-0.33490184
149	0x3dbdc738	0.092665136

fc3.bias f4 [3]
0	0x3b4aad3d	0.0030926012
1	0x3d804a97	0.06264227
2	0xbe7d1081	-0.24713327
